robustness-of-subgraphs-count-main 2/tests/model.pth (torch, 968707 bytes, 53 tensors)

z_embedding_list.0.weight f4 [100, 64]
00000000: 1d45 5b3f 2dec e23e 7311 09bf f7b3 16be
00000010: 665a 1d3f 3e91 533f cd8a 9b3f 1d88 af3e
00000020: 05cc 35bf 868b 95bd 0142 fb3f 4687 c63f
00000030: b967 373f 8403 4e3f 43b1 28bf 7c67 84bf
00000040: 7eda eebe bb1f 393f a605 7f3f d472 03c0
00000050: dc82 e73e f760 633f 60a5 edbd e75a bbbe
00000060: bddb 883f 5f52 69bf caf0 58bd 314c a93f
00000070: b00c ae3d 9fa3 583f a559 a3bf e850 af3f
00000080: db19 0b3f 65a2 efbe c451 af3d 31db 893f
00000090: cf72 17bf 998a 8bbf 5f99 783f 44c2 343f
000000a0: 808c 3ebe bdcc d2bf 3357 a3bd 2f93 f93f
000000b0: c6be 50bf b6cf 52bd 5b81 253f f978 ac3f
000000c0: 1110 13bf 1e66 50bf c919 b73f a13e e03e
000000d0: 5d71 05c0 8a7e 64bf 9ea1 d9be 3f7b 82be
000000e0: 6259 bd3f 767b 26bf ff7c 223f 60cf 393f
000000f0: 2b2b 48bf 9910 663e a3f6 f73f 59b1 963e
00000100: 83b2 bbbf 3ae4 a7bf cb64 dabf d7d2 00bf
00000110: af40 553f 9dca b63e 800b ff3f 424f 85be
00000120: 8cf6 853f 8036 b2bf 0e01 babf 835a 35be
00000130: 6f00 a23f 14ea 02bf f9d5 843e 18fb 3f3f
00000140: c620 803e f7ac 9b3f 6fdb ddbc 9b8d 0bbf
00000150: ff7f ebbe 7d02 3f3f 5288 44bf 2394 6c3f
00000160: 30f9 b93f 4c6c 9a3f 56b2 95bf b7d8 d23f
00000170: 2c55 ba3e 0420 183f 9f41 1f3f c3d9 623e
00000180: e22b 50be 6db0 0040 6ea0 613f a7e3 ec3f
00000190: 0398 9e3f 66f2 2ebe b7a0 a43f defa e9bf
000001a0: 45de 52bf fcb5 2c3e 683f 2c3e dc4f 253f
000001b0: f2bf 3ebe 4d0d 8f3f 8ab1 0e3f 59a5 03c0
000001c0: ada8 8cbf 2ae7 aabf 71aa 1e40 a19f 5b3f
000001d0: c23b c73e 2d4d 0740 35d9 84be 145c 0abf
000001e0: 0c46 ddbd 2d10 973e 5fb4 c9bf 11de 45be
000001f0: ca96 22bf 47d2 febf 38a3 86be 0ca1 fbbf
00000200: 73da 973e dfbb c8bd 67a3 c2be 5ab9 5cbe
00000210: 5f0c 9b3d db9b 76bf b95c 9c3f 6a2e c73e
00000220: f24c 433e a3d2 8cbe c47f 6bbd 15c9 acbe
00000230: 7dd2 1e40 9ad6 663c 5fa3 92bf e3eb 523f
00000240: fae4 3dbf 8268 47bf 9770 acbf bc82 923e
00000250: 9139 903f 48b2 d9be bb10 0f3e 5f4a a1bf
00000260: 46d1 2c3f 951a 4ebf c072 d93f 9892 45bf
00000270: 864e 5e3c dd4f 3d3f 6e00 873f 42a6 02bf
00000280: 7139 b03e 0a09 833f dd8b d9be 66f2 1e3e
00000290: 236f 9bbe 8b9a 313f 8471 62bf 7561 0f3f
000002a0: eb97 913f bddd b23e 8053 d2be c53f 4dbf
000002b0: cef6 40bf bcd6 b7bf 9c25 9bbf 001f eebf
000002c0: bd72 36bf 2c89 adbf 0699 17bd 5525 afbf
000002d0: 679f 423f b0a1 d9bd 216d 513f 3f17 1abf
000002e0: 5583 c0bf 1826 97bf 29cd c63f 96fc 1ac0
000002f0: 97a7 debd 1608 1d3e 9965 173d a7cd 9a3f
00000300: d085 dc3f ca7a d73e 5dc7 91be 21b2 42bf
00000310: 2a0e 763e 36fb d63e 0d87 e5be 5098 93bf
00000320: ccca 4ebf 1c9b b13f c4bc 3d3f 67cb d7be
00000330: 4018 8b3f 3a04 923f d90d cabe 6679 84bf
00000340: 519b 093f 47bc a53f 06b9 49bf e540 4abe
00000350: d41f a2bf 7e67 b83f ecaa 9a3d 0bf4 8e3f
00000360: df36 9abe a581 dc3f 5aae 813c f5a5 52bf
00000370: 7b57 303f 46e8 1cbe 7bb7 573f 22a4 b9bd
00000380: c892 ab3d 0786 183e 6968 19c0 153d 853e
00000390: 7ab4 2abe f9bd 6ebf 6579 0940 b191 733f
000003a0: ea0b 803f 76f4 163f 36ad 8cbe bb74 69be
000003b0: 3ff3 343f 3dd6 c83d c837 0bbf 5a36 a93f
000003c0: 9b09 b6bf 9fea 823e 5225 6dbf dbff eb3f
000003d0: e2ac 56bf 37b5 0a40 ffba 063e a767 85bf
000003e0: 5e96 0440 9d2b 31be 8a82 3a3d 61ae 193f
000003f0: b1ed f6be 87ef 1dbf 3cd8 5bbd da3c 47bf
0.85652333 0.44320813 -0.5354225 -0.14717089 0.6146606 0.82643497 1.2151734 0.34283534
-0.71014434 -0.073020026 1.9629518 1.5510032 0.71642643 0.80474114 -0.6589548 -1.0344081
-0.4665107 0.7231404 0.99617994 -2.0538836 0.45217025 0.8881983 -0.116038084 -0.3659279
1.0692059 -0.91141313 -0.05296401 1.3226377 0.08498514 0.84624666 -1.2761732 1.3696566
0.5433633 -0.46803585 0.085605174 1.0770017 -0.5915956 -1.0901672 0.97109026 0.70608926
-0.18608284 -1.6468731 -0.07975616 1.9498042 -0.815411 -0.05146762 0.64650506 1.3474418
-0.5744639 -0.8140582 1.4304744 0.43797782 -2.0850441 -0.89255583 -0.42506117 -0.25484654
1.4792902 -0.65032136 0.6347198 0.72582054 -0.7819087 0.22467269 1.9372143 0.2943218
-1.4663852 -1.3116524 -1.706201 -0.50321716 0.83301824 0.35701457 1.9925385 -0.2603703
1.0465865 -1.3922882 -1.4531572 -0.17710309 1.2656382 -0.51138425 0.25944498 0.74992514
0.25025004 1.216216 -0.027082173 -0.5451295 -0.4599609 0.7461317 -0.7677051 0.9241354
1.4529171 1.20643 -1.1695049 1.6472386 0.36393106 0.5942385 0.62209505 0.22153382
-0.2032924 2.0107682 0.8813542 1.8506974 1.239014 -0.17084655 1.2861546 -1.8279684
-0.82370406 0.16866297 0.16821063 0.6457498 -0.18627909 1.1175934 0.55739653 -2.056967
-1.0988976 -1.3351796 2.479153 0.8579045 0.3891278 2.1140854 -0.25946966 -0.5404675
-0.10804376 0.2950453 -1.575817 -0.19322993 -0.63511336 -1.9907922 -0.262964 -1.9658523
0.2965885 -0.098014586 -0.3801529 -0.21555081 0.07570719 -0.96331567 1.2215797 0.389026
0.19072321 -0.27504453 -0.057494894 -0.33747163 2.4815972 0.014089251 -1.1456107 0.82391185
-0.74177516 -0.7789384 -1.347186 0.28615367 1.1267568 -0.4251883 0.13971226 -1.2600821
0.67506826 -0.8050931 1.6988144 -0.7717681 0.013568526 0.73949987 1.0547006 -0.5103494
0.34418824 1.0237134 -0.4248952 0.15522155 -0.30358228 0.6937644 -0.8845446 0.5600808
1.1374487 0.34934798 -0.4107933 -0.8017543 -0.75376594 -1.4362407 -1.2120852 -1.860321
-0.71268827 -1.3557487 -0.03701117 -1.3683268 0.7602448 -0.106265426 0.8180714 -0.6019172
-1.5040079 -1.18085 1.553136 -2.4216666 -0.10871809 0.15335116 0.036962125 1.209401
1.7228336 0.42085868 -0.28472415 -0.76053053 0.2402884 0.41988534 -0.44829598 -1.1530857
-0.80778193 1.3875461 0.7411616 -0.4214737 1.0866776 1.140754 -0.3946369 -1.0349548
0.5375262 1.2948083 -0.7879795 -0.19751318 -1.2665963 1.4406583 0.07552132 1.1168226
-0.30119988 1.7227064 0.015830208 -0.8228448 0.68883485 -0.1532298 0.84264344 -0.09064509
0.08377606 0.14894877 -2.3969977 0.26023164 -0.16670409 -0.93258625 2.1480343 0.9514418
1.0003636 0.5896677 -0.274759 -0.22798435 0.70683664 0.09806488 -0.5438199 1.3219712
-1.4221681 0.25569627 -0.9263507 1.8437456 -0.8385755 2.1673105 0.13157271 -1.0422257
2.0716777 -0.17301793 0.045534648 0.60031706 -0.4822822 -0.61693615 -0.053673014 -0.7782723

z_embedding_list.1.weight f4 [100, 64]
00000000: b032 0cbf 6a8b df3e 9acd a3bc 4287 e4bf
00000010: 88c2 dc3f d6c4 6bbf 1d05 933f c273 eabe
00000020: 10b6 92bf d126 a8bf cd20 8cbf 1540 f23e
00000030: 8b6e 1abe 63d2 3e3f f376 f63e 0b44 b63f
00000040: 5532 5cbe f417 a63f d6ec 3abf f809 673d
00000050: 76e4 02bf d1f1 943f 1329 bdbd efd0 74bf
00000060: e58a 0cbe d8a1 4cbe 421b 6f3f ac67 853f
00000070: 8ec1 04bf f80e 9dbf 1220 023e beb4 7c3e
00000080: 74e8 e33f a1c5 2d3f f762 b93d b5ca 7dbe
00000090: d17c 3cbf 44c3 73be 7daf 0c3f 90d4 963f
000000a0: dd52 c1be 8006 3c3f 2160 a8be 00e7 9b3e
000000b0: 6926 2e3f 23c1 453f d942 acbb d8fd 3fbf
000000c0: 4150 a1bf 5b4a 95bd fc6d ed3e aa4b ce3f
000000d0: fc3d 42bd 4910 dd3d 5e9a 0a3e 0e9c 84be
000000e0: 4e19 573e af61 9c3e a4fa 8e3f a2f7 a13d
000000f0: 3317 e9bf c876 e83e dc04 4a3f fc43 7fbf
00000100: 6445 873f f2a7 10be 02ad d13e c5ec 91bd
00000110: ea87 b1bd c50e 8d3f 1800 38bf c2f5 49be
00000120: 5792 c7be f024 ebbf 90ff 58bf efc8 38bf
00000130: e796 863f c549 57bf 5c35 583f df6b 3e3f
00000140: 62ef c63e 04ee 6b3f dfc5 cabe 42a4 da3e
00000150: 7b2c f2be 70a2 7a3d 3c95 37be 25d1 ddbe
00000160: 9966 9f3f cfdc 873e 2b01 663f c870 c03f
00000170: 19ca 3b3f 024d 333f fd40 823f 9bda e83e
00000180: a632 81bd 81aa b3be d44a 563f 4281 97bf
00000190: 075a d5be 9a9f 6bbf ec3d 27bf 6cee 10bf
000001a0: bd7e 92bf 93bc 3d3f 1d07 b6be 323d 45bf
000001b0: ad05 18bd ae3f d43f 4b6d 1e40 ed0b ae3e
000001c0: 45ac 1b3f e1f4 9cbd 03fc 0abf 7db9 bebf
000001d0: bafe a9bf 74f0 acbc 50af bebf f1df 75bf
000001e0: 6140 5c3f eb55 1f40 fc9a 6fbe 32c3 f93e
000001f0: d48d 70bf a7c7 c1bf c4b1 f33e 8fa8 423e
00000200: ea99 b03e 78c0 94bf 2db0 963e 4ac6 49bf
00000210: 088a 1e3f cd12 9b3f 39ec 913e 84f9 90bf
00000220: dfc4 5c3d 290c 99bd 4424 3c3f d47a b2be
00000230: e25d 263e eb4a 963f f6e2 d7bf 7af9 20bf
00000240: 216c b9bf 5962 7f3f f9c3 933f 968f 0ebf
00000250: 8d42 70bf cc9d ad3f af6c 383f f83b c2bb
00000260: 37ee 063f 21e1 02bf 7983 1ec0 663e 6abe
00000270: 5da4 05c0 eee6 7c3f bc12 b23d 8d19 28be
00000280: 6fd7 a1bf 54d3 073f aedb 213f bd5c 853f
00000290: 82ec 82be 2bcd 333e 8707 583e a340 243f
000002a0: a5ef 27c0 648f a93e 9551 413f d964 debf
000002b0: 09b0 0140 1783 a0bf 6542 babf 83a3 f33d
000002c0: 2d5b da3f 46de 9d3f 75f1 2a40 fdfa f83e
000002d0: 75d8 e63d de3f aabe 6973 c0be 05cc 4e3d
000002e0: c435 683f 778d 8abf 75f0 97bf 574b 153e
000002f0: 076b a6bf b4b0 46bf c27c 9d3f 9dcf e0bf
00000300: 5355 943f 5ff0 743e 4ed3 6c3c 7309 e23d
00000310: 462c b53e 0d6d d03f e30e f93e 71df 05be
00000320: 4ef2 ee3e f45d 27be 26a4 ba3f 7ca4 0a3f
00000330: 1450 67bf 1b38 cb3e c633 0f40 c04e 8ebf
00000340: 670b 1fbf 2c94 a0be 310e 9dbe 2040 033f
00000350: ce03 db3f 2370 4a3e 7c94 293f f9fd b3bf
00000360: 98cd 5fbf 592f 183f e1c8 203e fef6 34bf
00000370: 7359 133f deb0 54bf 11a6 b6bf d30e 1ebf
00000380: 720d 8c3f 3a84 1dbf 195a 80bd 27e8 8b3f
00000390: f26d b8bf 9bb1 39bf a7ce 9c3e 8ce2 f7bd
000003a0: 025a 0140 d6a4 5abf 36f2 c9bd 7f97 5e3e
000003b0: 5d4e bcbe bba9 c7be be4c b03d 7922 fb3e
000003c0: 3c66 86bf 53f1 e43d 365d 6cbe 4c2d a6bf
000003d0: 40e9 3cbf b43c 04bf b3c4 3dbd 6ed9 403f
000003e0: b729 9ebe ad25 11be 1b85 02bf 64ef 3d3f
000003f0: 5f07 03c0 e8a1 08c0 c737 57be 9ad7 dbbe
-0.54764843 0.43661052 -0.0199955 -1.7853777 1.7246866 -0.9209722 1.1485935 -0.4579144
-1.1461811 -1.3136846 -1.094751 0.47314516 -0.15081231 0.74539775 0.48137626 1.4239515
-0.21503575 1.297606 -0.7301763 0.05640599 -0.51129854 1.1636297 -0.0923635 -0.9563131
-0.13724859 -0.19983613 0.9340097 1.0422263 -0.5185784 -1.2270193 0.12707546 0.24678323
1.7805314 0.6787968 0.09052079 -0.24784358 -0.73627955 -0.23804957 0.54955274 1.1783619
-0.37758532 0.7344742 -0.3288584 0.30449677 0.6802736 0.7724783 -0.0052569923 -0.7499671
-1.2602617 -0.07289573 0.46372974 1.6116841 -0.047422394 0.10794122 0.13535449 -0.2590031
0.21005747 0.30543277 1.117024 0.0790856 -1.8210205 0.45403123 0.78913665 -0.9971311
1.0568051 -0.14126566 0.40952307 -0.07125238 -0.08668502 1.1020132 -0.71875143 -0.19722655
-0.38978836 -1.8370647 -0.8476496 -0.721816 1.0514802 -0.8409694 0.8445642 0.7438335
0.3885451 0.9216006 -0.3960409 0.42703444 -0.4729956 0.06119007 -0.17928022 -0.43323627
1.2453185 0.2653565 0.8984553 1.5034418 0.7335525 0.7003938 1.0176083 0.45479283
-0.063084885 -0.35091022 0.8370793 -1.1836321 -0.41670248 -0.9204041 -0.6532886 -0.566138
-1.1444927 0.74115866 -0.35552302 -0.770465 -0.037114788 1.6581933 2.4754207 0.33993474
0.6080974 -0.076638944 -0.5429079 -1.4900357 -1.3280861 -0.02111075 -1.4897251 -0.9604483
0.86035734 2.489619 -0.23398966 0.48781735 -0.9396641 -1.5139054 0.47596562 0.19009613
0.34492427 -1.1621237 0.29431286 -0.7881819 0.6192937 1.2115113 0.28500536 -1.1326146
0.05389869 -0.074730225 0.73492837 -0.34859335 0.16246751 1.1741613 -1.6866138 -0.6288067
-1.4486123 0.9975944 1.1544181 -0.55687845 -0.9385155 1.3563781 0.7204084 -0.005927559
0.52707237 -0.5112477 -2.4767745 -0.22875366 -2.088157 0.9878987 0.086949795 -0.16415997
-1.264387 0.53056836 0.6322583 1.0418926 -0.25571066 0.17558734 0.21096621 0.6416113
-2.6240017 0.3311721 0.7551511 -1.7374526 2.0263693 -1.2540005 -1.4551512 0.11896422
1.7059075 1.2333457 2.6709874 0.4862899 0.11271755 -0.33251852 -0.3758805 0.050487537
0.9070704 -1.0824422 -1.1870257 0.14579521 -1.3001412 -0.7761338 1.2303698 -1.7563359
1.1588539 0.2391982 0.014454676 0.110369585 0.3538534 1.628328 0.4864417 -0.13073517
0.4666924 -0.16344434 1.4581344 0.54157233 -0.90356565 0.39691243 2.237535 -1.1117783
-0.62126774 -0.31363046 -0.3067489 0.5126972 1.7110536 0.1976934 0.66242194 -1.4061881
-0.87423086 0.59447247 0.15701629 -0.7068938 0.57558364 -0.8308238 -1.426943 -0.6174137
1.0941603 -0.61529887 -0.06267185 1.0930222 -1.4408553 -0.7253663 0.30626413 -0.12103757
2.0211186 -0.8540777 -0.09860651 0.21737479 -0.36778536 -0.38996682 0.086083874 0.49049738
-1.049995 0.111788414 -0.23082432 -1.2982574 -0.7379341 -0.51655126 -0.046330165 0.7533177
-0.308912 -0.14174528 -0.5098435 0.74193406 -2.047325 -2.134882 -0.21017371 -0.42937928

z_embedding_list.2.weight f4 [100, 64]
00000000: 30f1 0dbf 2ae7 bb3f 4c3d 09be dcd4 c8bf
00000010: 40e5 453e e921 c7be 8488 973e e238 3abe
00000020: 808e 4a3f b71f 753f fdd3 c1bf 86de 8bbe
00000030: 2af9 75bf 32c9 9d3e b991 1f3f 9e4f 2fbf
00000040: 3e40 e43f 7211 9b3f e02f 4d3f 2353 cc3f
00000050: 4704 5b3e 4541 8ebf 200a 50be 3c2f 6c3f
00000060: cd7f 27bf beb2 d33e eb5f 78bf 2b39 c03e
00000070: 59d6 c73f 0942 bdbf 8a6d c1be 0b58 34be
00000080: ecfb ba3e 8eed 68bf efcc 953f 89ad 5c3f
00000090: dd40 28bf 1a59 93be e377 fdbd 5404 1cbf
000000a0: f3f5 fbbd dc06 ba3e 6f2e 91bf c258 613d
000000b0: 46a2 1c3e 08f0 4fbd 4486 c0be abba 02bd
000000c0: 7205 abbf b102 92bf 8bd6 923f ef50 923d
000000d0: 9538 0240 ff66 803f 5356 0440 d347 9ebf
000000e0: a380 e5bf 5931 88bf c59a a53d ed77 56bf
000000f0: f18c 273e 1729 cf3c 67d4 6bbf 1e82 4bbf
00000100: ac92 f3be 8db9 723f 0310 5abe f07f 47bf
00000110: e8d8 1dbf 2d3d eebe e7ab 1fbf 4e50 303f
00000120: 3854 053f 0a58 8e3f 986a 00c0 c9dc 0640
00000130: 3f83 89bf fc44 8cbf daa7 c6bd 1fb3 30be
00000140: 44e1 8fbe 77a3 09bf 5ed0 68bf 80ef 163f
00000150: 6a3e d1bf 55f5 efbd 6d5c dd3f 2341 ce3e
00000160: c565 0dbf 2f8a f73f aeec a6be 6fa6 febe
00000170: b24f f0bd f81b e23e 1866 b93e d7a6 c4bf
00000180: 95a1 89bd 5d86 39be 89a4 58bc e83e 25bf
00000190: 38a6 a33e a913 09bf 4438 293f 9728 ff3b
000001a0: e3f9 ff3e 0797 dbbe 6074 9dbd 9257 813e
000001b0: f473 f23e 994e 79bf 7610 70bf 4723 323f
000001c0: 801b 0a3e 92f3 f93c 4053 05bf dfc1 05bf
000001d0: 8ef7 2abf d0d5 3dbf 73ac a0be 05f8 ccbe
000001e0: 65da 363e 5b1e ebbf 60a6 9e3f 584d 57bf
000001f0: ece9 b63f 688a a2be 31eb 67be ccae 68bf
00000200: bcdb 99bf 8353 113f 8bd5 17be 4c0c 39bf
00000210: 874f 223f 7aeb 583f c894 cb3e 1c96 803e
00000220: 1194 3f3f 3a53 2b3f 3680 a6bf 7fc8 94bf
00000230: 0533 89be b3fe 39bf 111e 113f 67ba 563f
00000240: b31d 97bd fcca 163e 1f25 01c0 4750 61bd
00000250: 6757 833e 02f9 33be abdd 5f3f a99f 2a3e
00000260: b893 723f 091e 3b3d fc38 603e 967a 1a3f
00000270: a5c0 903f 3bb5 b53f 9a37 84bf f06e e93f
00000280: 7f12 74bf a469 97be 1ff8 0140 d5bf 6abf
00000290: 8e73 43bf fe11 253e 6fab c5be fc71 56be
000002a0: 916d 19bf e8d5 d7be ba98 213f b493 033f
000002b0: 9d1c 5bbd 093c e9bf 80d9 39bf b61e 9cbf
000002c0: 2ff6 61bf 26a4 e83d 6efb 37c0 b89b 8dbe
000002d0: 39c6 e93e 0d30 f63e 5c8c 1cbf 4aca 89be
000002e0: 41d3 e8be 2d79 c4bf 8c94 84bf f7ae 2dbf
000002f0: 33db 4dbe a034 d7be ac18 923f f275 36bf
00000300: e6ed b43f f1ca 38bf 4222 1a3f 6562 cebe
00000310: 4ec7 c8be 37b6 fe3e c7d4 5e3f 6561 89bf
00000320: 06c8 0a40 9f66 0840 a126 a6bf f1e5 d6be
00000330: ec06 e73e f123 883e c6dc 7d3f d198 a4bd
00000340: fee5 42be fe84 b83f b382 ab3f c66e 6ebe
00000350: 86f4 d3be 8b45 70be bccb b1bf acb5 62bf
00000360: 5b65 923f 32a0 963f 19cd 263f 65a5 bfbe
00000370: a3e1 503f b8d5 0f3f 19b0 aebf 0b6d 923f
00000380: 455b 943e 7f13 9b3e f662 db3f de45 833f
00000390: 311f 3a3f bd1b bc3f a727 573f c6f7 d5be
000003a0: 4b58 bfbf 7dba 07c0 eb77 a13f df08 d83f
000003b0: f059 90be 8b65 a93d 84d1 ebbd 2083 bf3d
000003c0: 5c51 a13f 8e31 b7bf 5713 74bf 1691 d4bf
000003d0: 4cf0 4d3e 3e2d 433f 4429 a73e 11d4 d23f
000003e0: 0df7 673e f109 413f 95dd 05bf eb0b dcbe
000003f0: eb9c b1be d799 1340 2d93 adbf 754f e4be
-0.5544615 1.4679921 -0.13402289 -1.568996 0.19325733 -0.3889306 0.2959634 -0.18185762
0.7912369 0.9575152 -1.5142819 -0.2731821 -0.9608332 0.30817562 0.6233173 -0.6848086
1.7832105 1.2114699 0.80151176 1.5962871 0.2138835 -1.1113669 -0.20316362 0.92259574
-0.65429384 0.41347307 -0.9702136 0.37543616 1.5612289 -1.4785777 -0.37778884 -0.1761171
0.36520326 -0.9098748 1.1703166 0.86202294 -0.65723974 -0.28778917 -0.12376382 -0.60944104
-0.123027705 0.36333358 -1.1342295 0.055016287 0.15296277 -0.05076602 -0.37602437 -0.0319163
-1.3361037 -1.1407071 1.1471723 0.07144343 2.0347035 1.0031432 2.0677688 -1.2365669
-1.7929882 -1.064006 0.080861606 -0.8377674 0.16362359 0.025288148 -0.92120975 -0.7949542
-0.4757284 0.9481438 -0.2129517 -0.7792959 -0.616591 -0.46531048 -0.6237168 0.68872535
0.5208163 1.1120617 -2.006506 2.1072257 -1.0743178 -1.0958552 -0.09699984 -0.1725583
-0.28101552 -0.5376505 -0.90942943 0.589592 -1.6347172 -0.11716715 1.7293831 0.4028407
-0.55233413 1.9339045 -0.32602447 -0.49736354 -0.11733951 0.44161963 0.36210704 -1.5363415
-0.067202725 -0.18117662 -0.013222822 -0.6454911 0.31962752 -0.53545624 0.6610148 0.007786821
0.49995336 -0.42888662 -0.076882124 0.25262123 0.4735409 -0.97385556 -0.9377512 0.6958508
0.13487053 0.030511651 -0.52080154 -0.5224895 -0.6678399 -0.74154377 -0.31381568 -0.40032974
0.17856748 -1.8368639 1.2394524 -0.8410239 1.4290137 -0.3174622 -0.22648312 -0.9089172
-1.2020183 0.56768054 -0.14827554 -0.7228439 0.634026 0.8473431 0.3976195 0.25114524
0.74835306 0.6692387 -1.3007877 -1.1623687 -0.26796737 -0.72654265 0.566865 0.8387818
-0.073787116 0.1472587 -2.0178907 -0.0550082 0.2565262 -0.17575458 0.87447613 0.16662468
0.9475665 0.04568294 0.21896738 0.603433 1.130879 1.4195932 -1.0329468 1.823698
-0.9534072 -0.29572785 2.030769 -0.9169896 -0.763482 0.16120145 -0.38607356 -0.20941919
-0.5993281 -0.42155385 0.6312367 0.5139725 -0.053494085 -1.8221446 -0.72597504 -1.2196872
-0.8826627 0.11359434 -2.874721 -0.27657866 0.45659044 0.48083535 -0.6115167 -0.26912147
-0.45473674 -1.534948 -1.0357833 -0.678451 -0.20103149 -0.42032337 1.1413779 -0.7127372
1.4135101 -0.72184664 0.60208523 -0.40309444 -0.39214557 0.49748394 0.8704342 -1.0732847
2.1684585 2.1312635 -1.2980539 -0.41972306 0.45122468 0.2658992 0.99165 -0.0803696
-0.19033048 1.4415586 1.3399261 -0.23284444 -0.41397494 -0.23464029 -1.38903 -0.8855846
1.1437181 1.1767638 0.65156704 -0.37430874 0.81594294 0.56185484 -1.3647491 1.1439527
0.28975883 0.30288312 1.7139575 1.0255697 0.72703844 1.4695965 0.8404488 -0.417906
-1.494882 -2.1207573 1.2614721 1.6877707 -0.28193617 0.08271321 -0.11514571 0.09351182
1.2602954 -1.4311998 -0.9534201 -1.6606777 0.20111197 0.7624091 0.3264867 1.6470968
0.22652836 0.75405794 -0.5229123 -0.42977843 -0.3469003 2.3062646 -1.356054 -0.4459187

z_embedding_list.3.weight f4 [100, 64]
00000000: d1de b33e 7189 eabf bc32 2cbf 47f8 91bf
00000010: b70a 0d3f 9b8e 2abf 89c7 78bf 8985 a53f
00000020: 2c3c 2bbf da34 96bf 13f2 73bf 6b5e b0be
00000030: 4c0e 8fbe 01aa ad3f d52b 8a3f 43f4 7cbf
00000040: ad1a d53f d665 39bc 0a0f 9d3e e57a 1a3f
00000050: db13 99bf f6d2 213e 6359 30bf 0790 01c0
00000060: 1cb9 e0bf 087d 193f 79da 7c3e 89af a03e
00000070: 092c b0bd bd87 3a3e 314f 2ebf 2c72 f3be
00000080: f68c a73f 23bb 213f c0ea c3bf 5b74 453e
00000090: c9e3 fd3f 25c7 483f 61aa 48bf 16e6 cbbe
000000a0: 1d14 c4bf 6641 24be 4984 e63e 1958 9c3e
000000b0: 2808 e0bd 59b2 9fbf b53c 243e 78c3 dbbf
000000c0: 4bd2 8f3f 18eb ddbe 3749 a8bf 5d4f f2be
000000d0: f5a4 a13f 457c a73f d186 a93f 5c46 273f
000000e0: eec7 f43e 0f78 5d3f 98c1 ddbe 0d66 a3bf
000000f0: f369 b63f c0ff e03e 629a 9c3f 23ef 943f
00000100: 38ce e83e 747d 4fbe a561 8abe c6aa 9b3e
00000110: cee3 47bf c8c2 aabf aefa 7e3f 6fbc 6a3f
00000120: 0a04 003f d569 643c 294c 013e ae4a 4cbf
00000130: e738 ae3f 14bd ddbf aae1 9abd b1b5 2d3e
00000140: 6dbf 4cbf f3e8 49be d2d2 b83e 5612 39bf
00000150: e2b6 cebf 7fe7 bbbe c7ac 4b3f 03bd 04c0
00000160: af14 8cbe 0a39 05be f29d 83bf 0b2f 673f
00000170: 1071 4d3f e848 bbbe 2e01 423e 8392 8f3f
00000180: 1c92 7dbf 06d7 67bf 2668 833e b0b2 7b3f
00000190: 8a53 a03f f78b 443e 8cd3 793e 7048 f1bf
000001a0: 00f1 dfbf 3764 833f 5fad 603f 3688 d03f
000001b0: b1df 873d 77cc 2cbf ee9c 01bf 04dc cfbb
000001c0: 29d7 313d 8d95 a6be 2438 bc3f 6b71 b6be
000001d0: dc0c 9d3f dca9 573f d9e6 52bf d797 833e
000001e0: a3a8 06bf f80b d4bd 6133 45be 40db b3bf
000001f0: 9bb4 2b3f e99b 893d edc5 e13a 4548 553f
00000200: 00c7 983e f407 443f c8dc a0be a295 3e3f
00000210: 136e a4be c299 9ebe 1c7c 8e3f c31a c13e
00000220: 1e1d 89be 5058 363f c3b7 bf3e f908 d0be
00000230: 5e46 b7bf bf7e 99bf 2634 b0be 0c2c 2bbf
00000240: a0b7 8b3f 3d72 1b3e 4568 3ebe c14a 2ec0
00000250: e0f4 b13e 4bc5 41bf ac48 663f ee2a 87bd
00000260: 4011 0bbe 05a9 dabe 34ce 223f f6b0 bd3f
00000270: 2dc6 523e ea90 03bd 0ec6 543f e629 afbe
00000280: f4fc 9d3e afb3 33bf 24ec 9e3e 8389 303f
00000290: 741d 353b 74b9 8f3f 40db 563f bcb7 443f
000002a0: e0fb 06bf 66a5 cc3e f470 563e 4022 4f3f
000002b0: 504d 80bf eb96 58bf 7156 f9bf 43da d73f
000002c0: ce2f b63f a91c 763f 1ab3 1b3e 94bf 8abe
000002d0: 3fe0 053f 9528 183f f923 09bf 72ac 6abf
000002e0: 51d7 82be c070 c83d 65b3 d4be 5c91 353f
000002f0: 0fd2 a8bd 629a b53f c32d ac3e 17e3 a4bf
00000300: f60f 01c0 0c54 873e af9c ad3f ac42 c1be
00000310: 7a8f 00bf 98fd dabe ff6d b43f e597 b43f
00000320: 8af1 933e 9df7 093f 7682 603e 844b 6e3f
00000330: a7e1 01bf 34ca ec3e f3ea 0440 13ce 843f
00000340: 860c 433d 86b8 99bf ae9c 5d3f 925c 003d
00000350: 9fcf 04c0 98e0 b73f 0749 993f 0a45 8abf
00000360: 5288 0b3f b7cc e63e 8df0 a33f 5ad7 bdbe
00000370: 2177 033f 06af 1540 5938 a3bd b2ce d73f
00000380: 3ab5 1e3c 9ee8 b9be 8878 4f3f 2090 d5be
00000390: 5bfd 123d 427b 223e b9e2 3f40 2178 72bf
000003a0: 9bf6 7b3f 87a7 fa3e b410 363e b1ec b4bf
000003b0: 4444 8fbf 5d4b 24bf 88ff 6a3f 4c98 8fbf
000003c0: 56cd ff3f 56c2 67bf f18e eabf c67c 39bf
000003d0: aaaa 78bd 6208 db3e 368e 0ec0 ea01 e63e
000003e0: ef2e 01be bd7f 99bc f17f d83f 8951 81bf
000003f0: b506 4a3f 51d1 603f ed13 77be 1eed d7be
0.35130933 -1.8323194 -0.67264915 -1.1403893 0.55094475 -0.6662385 -0.97179466 1.2931377
-0.6688869 -1.1734879 -0.9529125 -0.34447035 -0.27940595 1.3567506 1.0794626 -0.98810214
1.6648766 -0.0113157835 0.30675536 0.6034377 -1.1959184 0.15803131 -0.68886393 -2.0244157
-1.7556491 0.5995641 0.24692716 0.31383923 -0.08602149 0.18215843 -0.68089586 -0.47548044
1.3089893 0.6317617 -1.5306015 0.19282667 1.983514 0.7842887 -0.7838498 -0.3982398
-1.5318638 -0.16040573 0.450228 0.30535963 -0.10939056 -1.2476302 0.16038783 -1.7169027
1.1236051 -0.43343425 -1.3147343 -0.47326174 1.2628466 1.3084799 1.3244268 0.65341735
0.47808784 0.8651132 -0.43311763 -1.2765518 1.4251083 0.43945122 1.2234614 1.1635479
0.45469832 -0.202627 -0.27027622 0.30403727 -0.7808198 -1.3340693 0.99601257 0.91693777
0.50006163 0.013941248 0.12626709 -0.7980145 1.3611115 -1.7323327 -0.07562573 0.16963841
-0.7997959 -0.1971777 0.36098343 -0.72293603 -1.6149561 -0.36700055 0.7956051 -2.0740364
-0.2735953 -0.1301004 -1.0282576 0.90306157 0.80250645 -0.3657906 0.18945763 1.1216587
-0.9905107 -0.90562475 0.25665396 0.9831953 1.2525494 0.19194017 0.24397105 -1.8850231
-1.7495422 1.0264958 0.87764543 1.6291568 0.066344626 -0.6749949 -0.5063008 -0.0063433666
0.043418083 -0.32535973 1.4704633 -0.35633406 1.2269549 0.8424356 -0.82383496 0.25701782
-0.5260107 -0.10353845 -0.19257881 -1.4051285 0.6707246 0.067191906 0.0017225124 0.833134
0.29839325 0.76574636 -0.31418443 0.7444707 -0.3211523 -0.30976683 1.1131625 0.3771573
-0.26780027 0.71228504 0.37444887 -0.40631846 -1.4318349 -1.1991805 -0.34414786 -0.66864085
1.0915413 0.15180297 -0.18594463 -2.7233126 0.34757137 -0.7569167 0.8995464 -0.06599985
-0.13580799 -0.42707077 0.6359589 1.4819629 0.2058341 -0.032120623 0.8311471 -0.34211653
0.3085705 -0.7019605 0.31039536 0.68959826 0.0027635964 1.1228471 0.839283 0.76842856
-0.5272808 0.3996994 0.20941526 0.80911636 -1.0023594 -0.8460528 -1.9479505 1.6863483
1.4233339 0.9613748 0.1520504 -0.27099288 0.522953 0.59436923 -0.53570515 -0.9166938
-0.25554898 0.0978713 -0.41543117 0.70924926 -0.082431905 1.4187739 0.33628663 -1.2881802
-2.0165992 0.2643131 1.3563441 -0.3774618 -0.5021893 -0.42771602 1.4096068 1.4108855
0.28895217 0.5389345 0.21924767 0.9308398 -0.50734943 0.4624802 2.0768402 1.0375389
0.047619365 -1.2009437 0.865672 0.031338282 -2.0751722 1.4365416 1.1975411 -1.0802319
0.54504883 0.4507806 1.2807785 -0.37078363 0.5135365 2.3388076 -0.07969732 1.6859953
0.0096867625 -0.36310285 0.8104329 -0.4171152 0.03588615 0.15867332 2.998213 -0.9471455
0.98423165 0.48955938 0.17779809 -1.4134732 -1.1192708 -0.64177495 0.9179616 -1.1218352
1.9984539 -0.9053091 -1.8324872 -0.72456014 -0.060709633 0.42779833 -2.2274299 0.44923335
-0.1261556 -0.018737668 1.6914045 -1.0103008 0.78916484 0.8781939 -0.24128695 -0.42173094

z_embedding_list.4.weight f4 [100, 64]
00000000: 2043 863e 428b 2fbf 742b debf 019e 7b3f
00000010: 277f 1fbf be73 753d ad99 9f3e ce0e 91bf
00000020: afd2 4d3f 96f1 8d3b d0cd 13c0 3ab8 393f
00000030: 39e2 be3e 6972 733e cfcb 613e 122f c1be
00000040: 7e62 d83d 9d08 b4bf 6125 eebf 029b ed3f
00000050: 527d 80be c4c6 bb3e 3b04 7cbb 4f8a 743f
00000060: f212 173f 5bb3 0a3f 2228 6c3f 227f 873f
00000070: 9c8a f23e 41f2 3bc0 8093 883f 583f 413f
00000080: d06e 85be 1824 e3bf 01fa b53d f630 1bbf
00000090: 8405 843f 6b82 b7be 3aaa 25bf 9d0c 74bf
000000a0: 640e 4cbf c73a 1140 98ba adbd cb0a f8bb
000000b0: 0182 323f eec3 37bf 4e5b aa3f a45a 9a3d
000000c0: 6d92 173f 3e36 9e3f 0c12 24bf e20d e7bf
000000d0: c669 223f eb4b 24bf 06a9 273f 95c2 66bf
000000e0: 3dfa 0bbf adc9 9d3e 019e 333f 5334 623e
000000f0: 03ab f53d 8903 aa3d deba cebf a0ae a7bf
00000100: 60c0 a7be 4c6d aebd 0fa7 d6bf 79a2 9b3f
00000110: fcb1 333f 7399 103f b97f 493f 101f 7e3f
00000120: 40ce 103f dca0 5b3f 52d6 e73f f9ab 4ac0
00000130: 2266 c03f 23d4 cdbe 4b52 253f 54e8 4bbf
00000140: ea36 5dbf 9db3 f0be 29f8 0a3e d523 f9be
00000150: 6524 c8bf d05a bb3f b759 d13f 7f56 f0bf
00000160: e4a2 f1be c6ec fa3f 003c 7cbf 6c2f aa3e
00000170: ea5c be3f fd60 443e ba5e c53d d2ae b4bf
00000180: ace2 693f b567 5dbf d2c7 fbbd b95a 9dbf
00000190: 1044 a9bf 1d9b 0bbf d290 0a3f 64d5 1cbf
000001a0: 9fca 84bf 94e5 aebf 033d cc3d 1e0f 82bf
000001b0: 35a4 da3e 6282 c43d 226f 323e 5f69 7dbf
000001c0: 9499 23c0 d187 a0bf b451 373f e115 f83f
000001d0: 92c1 e9be 63dd 293f 8ad4 8dbf 0fbc 823d
000001e0: c1d2 bfbf a306 42bf 1cf4 94bf e34c efbe
000001f0: 258e d93f 4018 b23f c046 3cbd 00bb f43c
00000200: 0e72 433f 3e7c 2d3f 042d 59bf ee4a ca3e
00000210: 918a a4be 627d 023f 3284 96bd 3ebc 2b3f
00000220: 9f05 21be e0a3 8bbe b05e e53e c3e6 3bbf
00000230: 14d8 363f 5147 a43f b6ae ddbf f5af 773e
00000240: 8a3c ce3f 2295 b7be e62f bd3f a97a 3d3f
00000250: 039e a2be ea16 59bf dbdb ddbf 7583 32be
00000260: 4dd5 0140 ccbc 783f b86a 5abe e9a4 973e
00000270: bb8b 973f 29d0 5abf d3b6 c73f 7db1 803f
00000280: 179a c6bf 392d 57bf 0969 a7bf 5b7b ccbf
00000290: dea3 733e 36e7 00bd 4031 043e 79cc 4ebe
000002a0: ae51 993f c055 debf df9a 84bf 4f22 a73f
000002b0: 286d 0ac0 0670 893f 1155 a1bf 9f45 64bf
000002c0: d7e8 b43f e56e bdbe 56ea 983c 45b6 373f
000002d0: 0e7e babf d57e 9b3f eda1 e2bd 7c80 833f
000002e0: 9699 813d a1be bf3f c4c2 af3c bd15 c13f
000002f0: 43da 173f 53ac a8be b426 abbe d89e 79bf
00000300: f2f3 2cbf 08bb b83d 45a8 1c3f a5ba 3640
00000310: d301 6dbf 3152 a2bf d964 3a3f 8986 c2be
00000320: 8b06 74bf 3f2b 323f 990a aabf d565 f7be
00000330: 8e90 e63f abce 003f 57d1 2940 f328 aa3f
00000340: a566 83bf 228e 82bf 3318 16bd 3680 85be
00000350: 96c7 a63f dac1 93be cc4d b3bf 4900 783e
00000360: f903 e0be d6dc 333e e6c3 70be 3a7c f93f
00000370: 5ee2 efbe 1201 153e 4dd9 9a3f d82e ffbe
00000380: 5409 0dc0 f279 21bf 1118 7fbf 2444 3d3f
00000390: 779f 68bf bec1 01c0 b57a 5a3f 34fc 60be
000003a0: e216 13be 6690 3cbf d885 1a3f db95 81bf
000003b0: 3473 a9bf 605e a2be c508 17bf f77b cd3e
000003c0: 570b 68bb a32e 5b40 b354 e13f ce44 f93f
000003d0: b0d8 ff3e 9952 21bf b059 a9bf ab1f 62be
000003e0: dc75 99bd a057 d4bf e04f 97bf 9e46 21bf
000003f0: 7a63 483f e3ab 203f bbbb 17c0 35d8 c2be
0.26223087 -0.68571866 -1.7357011 0.9828797 -0.62303394 0.059924833 0.31171933 -1.1332643
0.803996 0.004331778 -2.3094368 0.7254673 0.3728197 0.23774113 0.22050403 -0.37731224
0.10565661 -1.4065129 -1.8605157 1.856293 -0.25095612 0.36675084 -0.003845467 0.9552354
0.59013283 0.54179925 0.9224874 1.0585673 0.47371376 -2.936661 1.0670013 0.7548728
-0.26061106 -1.774539 0.08885575 -0.60621583 1.0314183 -0.3584169 -0.6471287 -0.95331746
-0.7970946 2.2692125 -0.084828556 -0.007569646 0.6972962 -0.7178334 1.3309114 0.075368196
0.59207803 1.2360303 -0.6409004 -1.8051112 0.6344265 -0.6417834 0.65492284 -0.9014066
-0.5467871 0.3081793 0.7016297 0.22090273 0.119955085 0.083014555 -1.6150777 -1.3100166
-0.32763958 -0.085169405 -1.6769732 1.2158958 0.7019346 0.56484145 0.78710514 0.9926615
0.5656471 0.85792327 1.811228 -3.1667464 1.5031168 -0.4020091 0.64578694 -0.7965138
-0.8641192 -0.47012034 0.13571228 -0.4866015 -1.5636107 1.4637089 1.6355504 -1.8776397
-0.47194588 1.9603508 -0.9852905 0.33239305 1.4872105 0.19177623 0.09637208 -1.4115851
0.913615 -0.8648637 -0.12293972 -1.2293311 -1.3223896 -0.5453356 0.5412723 -0.6126311
-1.0374335 -1.3663812 0.099725746 -1.0160863 0.42703405 0.09595181 0.17425206 -0.9898891
-2.5562487 -1.2541448 0.71609044 1.9381677 -0.45655495 0.66353434 -1.1080487 0.063835256
-1.4986192 -0.75791377 -1.1636996 -0.46738347 1.6996504 1.391365 -0.04596591 0.029874325
0.7634591 0.67767704 -0.84834313 0.39510292 -0.32136968 0.5097257 -0.07349433 0.6708411
-0.157248 -0.27273464 0.44798803 -0.7339899 0.7142346 1.2834264 -1.7318943 0.24188216
1.6112225 -0.35855967 1.4780242 0.7401529 -0.31761178 -0.8480059 -1.733272 -0.1743296
2.0286438 0.9716308 -0.21329772 0.29618004 1.1839517 -0.8547388 1.5602669 1.0054165
-1.5515774 -0.8405338 -1.3078929 -1.5975145 0.23792979 -0.0314705 0.12909412 -0.20195188
1.1978052 -1.7369919 -1.0359763 1.3057345 -2.1629124 1.0737312 -1.2604085 -0.89168733
1.4133557 -0.36998668 0.018666428 0.71762496 -1.4569719 1.2148081 -0.11066041 1.0273585
0.06328122 1.498005 0.021455176 1.5084759 0.59317416 -0.32943973 -0.33427966 -0.97508
-0.6755973 0.090200484 0.6119426 2.8551419 -0.9258091 -1.2681333 0.7281013 -0.37993267
-0.95322484 0.6959724 -1.3284484 -0.4831988 1.8012865 0.5031535 2.653402 1.3293747
-1.02657 -1.0199625 -0.036644172 -0.2607438 1.3029659 -0.28858835 -1.4008117 0.24218859
-0.4375303 0.17564711 -0.2351223 1.9491036 -0.46852392 0.1455119 1.2097565 -0.49840426
-2.2036943 -0.630767 -0.996461 0.739321 -0.90868324 -2.02745 0.85343486 -0.21971208
-0.14364198 -0.73657835 0.6036048 -1.0123857 -1.3238282 -0.31712627 -0.58997756 0.4013364
-0.003540715 3.4247215 1.7603973 1.9474123 0.49970007 -0.6301666 -1.3230495 -0.22082393
-0.07493183 -1.6589241 -1.1821251 -0.6299838 0.7827679 0.6276228 -2.3708332 -0.38055578

transform_before_conv.0.weight f4 [64, 128]
00000000: 45d8 513d 8756 813d 50d4 8dbd 3c94 933d
00000010: 649a b43d acef 963b 7500 45bd 1b21 45bc
00000020: 38e5 5ebd 0c9d a8bd 0d16 5f3c e0e1 313d
00000030: 1297 e9bc f6e9 6c3b 4caf 8cbd df27 aabd
00000040: eb63 95bd 45fa d7bc 3b29 2fbd 183f a73c
00000050: b558 593d 6025 b0bd ea64 98bc 302c 8cbd
00000060: af05 debb c47d 883d d5a5 ad3d b627 81bd
00000070: c683 af3d 2e80 a93c ba64 573d c48d 19bd
00000080: 8ee6 36bd dd4b 21bd 496e dbbc dadd 87bd
00000090: 5da8 e63b 88fa 71bd 77b3 69bd 1b8a ad39
000000a0: 8b79 59bd f891 793c db58 a8bc dfa2 c73c
000000b0: 7590 663d c64d a93d 8c90 b2bd 93df 8dbd
000000c0: b192 22bd 3aed 713d 9628 0cbc 79ee f83c
000000d0: 7421 1a3d 2c6d 723b f7d4 6f3d ee0e 2abd
000000e0: 14da 24bb 6e13 013d 637a 613d 2ec2 95bb
000000f0: 0149 75bd 1bad 89bd a347 ca3b d74f 1f3c
00000100: 8d42 083d c7db a0bc f594 963d 9b32 54bd
00000110: 0570 22bc a139 35bb e75d 3bbd b398 09bc
00000120: 3f7a 6dbd 5312 a53d 470a 15bd 3ec2 7dbd
00000130: 6c33 023b 55c1 b43b f57f 7cbd 422b 7e3c
00000140: 9101 8b3d c7f7 dabc 0058 9b3d 0a42 afbd
00000150: bea1 2c3d ad58 f83b 9010 13bd 1368 94bd
00000160: 9367 77bd b29a f5bc ec0b 94bd cc02 04bc
00000170: 5a77 433d 5ff6 8d3d dfdd cf3c c057 6b3c
00000180: 966c a4bc 7374 6c3c f210 3c3d 41b7 47bd
00000190: 4fec a83d da51 23bd ce09 103c b976 213c
000001a0: b4ca b43b 211d 863b 2d16 a7bd 2d10 b4bd
000001b0: a0d4 953d 1865 9c3a 1bcb 263d 952e 72bd
000001c0: 1a6b 1c3b e26e 0fbd 00b1 3b3d d642 2c3d
000001d0: 2853 a5bd f777 b4bd 317f dfbb f77b a43d
000001e0: f455 2b3d 958b 733d 4b0a 49bd de86 40bd
000001f0: 5532 9e3d dcea 13bd 7470 5dbd 4a61 60bd
00000200: e423 8abd 6577 1fbd db3a eebc 9cd5 273d
00000210: aef0 5f3d ee7d 07bd cd1e 66bd dde7 5bbc
00000220: 6cf2 dc3c f68d 813d 74d6 02bd dd0a 3fbb
00000230: 4d14 ba3c e418 2d3d e7dd da3c cee9 1f3d
00000240: d2fd 173d 874d 74bd 812e 3bbc fc90 4d3d
00000250: e555 343c 1d9e 27bc e435 863d 242f c43c
00000260: b05c 993d 50cc 80bd a79f 043d b488 5dbd
00000270: 94ca 65bd ce1f ae3d 9dfd a7bb 97ba 823d
00000280: aa79 79bd 037d 7b3b 598c 05bd 38df a3bd
00000290: 3049 81bd c514 b03d 5147 6ebc 1707 893d
000002a0: b6a2 9e3d 5a3b 74bd 3874 353d ca4a 3bba
000002b0: 37af a3bd f5f2 c63b 4de4 ae3d d081 06bd
000002c0: b30a 063d 0ce7 4e3d 8b5d 123c 1289 06bd
000002d0: 68f5 81bd 4eb1 403d 8450 b6bc 7e50 2e3d
000002e0: 4a0e 8cbc ced7 91bd a8e1 823d d33d a7bd
000002f0: 690f 863d 20b2 a73d 50cd dd3c f66a a43d
00000300: 3e77 843d 1b94 b4bd ad1f 9d3d 8348 4cbc
00000310: 5e2d 083d 6b9a 06bc a918 8fbd 731b 863c
00000320: 35ec 28bd adb9 6bbd 2841 b0bd c506 44bd
00000330: f7e9 833d 4a98 983d 9ce8 90bc d3b8 8a3c
00000340: 8480 5f3c efc7 a0bc a010 853d 14ee 38bc
00000350: f887 e23c 4a44 59bd 0c0e 0ebd d458 993d
00000360: 245e e2bc 1883 023d f19a 033d cc1d 6c3d
00000370: e7c6 033d 15f7 acbd 42c1 a5bc 91a9 a5bc
00000380: 2061 7dbd ddaa 793d 49b3 a23c 66ed 33bd
00000390: f7f7 fe3b 946b 9cbd 0c4a 63bd fc3f 06bd
000003a0: 6558 38bd 907b 18bd 6587 f3bc ee00 5fbc
000003b0: 7fdd b6bc 0f94 bc3c c5d5 d23c f93f 63bd
000003c0: f3f7 46bd fbdb b33d 94f8 ea3c c488 3e3d
000003d0: c248 c33c a1a9 0dbd 761d 6f3d 8bd8 1bbd
000003e0: f6e6 3b3d 1c19 adbd 45f1 93bd a8f9 c9bc
000003f0: 0d53 5db6 a07b ac3d cdd1 b2bd 8db2 643d
0.05123164 0.06315332 -0.06925261 0.07206008 0.0881851 0.004606208 -0.04809614 -0.012031819
-0.05441782 -0.08233079 0.013616097 0.0434283 -0.028514419 0.0036150194 -0.06869373 -0.08308386
-0.072944485 -0.026364455 -0.04276393 0.020415828 0.053063113 -0.08600879 -0.018602807 -0.068443656
-0.00677558 0.06664613 0.084788956 -0.063064024 0.08570056 0.020691004 0.052586295 -0.037488714
-0.044653468 -0.03937899 -0.026785986 -0.06634112 0.0070391134 -0.059076816 -0.057055917 0.00033100028
-0.053094428 0.015232556 -0.020550182 0.024369655 0.05629011 0.08266787 -0.087189764 -0.06927409
-0.039690677 0.059064128 -0.008554598 0.03038715 0.03762956 0.003699134 0.05855271 -0.041518144
-0.0025154399 0.03151267 0.055048358 -0.004570267 -0.059884075 -0.067224704 0.0061730905 0.009723625
0.033266593 -0.019636048 0.0735263 -0.051806074 -0.009914403 -0.0027652758 -0.04574385 -0.008398223
-0.05797791 0.08060136 -0.036386754 -0.061952822 0.0019867076 0.005516211 -0.061645467 0.015513243
0.06787408 -0.026729478 0.07585144 -0.08557518 0.042146437 0.0075789304 -0.035904467 -0.07246413
-0.06040151 -0.029980991 -0.072288364 -0.008057307 0.047721244 0.06931757 0.025374351 0.014364183
-0.020071309 0.0144320605 0.045914598 -0.04875875 0.08248197 -0.03987298 0.0087914 0.009854966
0.005517328 0.004092828 -0.081585266 -0.08792148 0.073159456 0.0011931984 0.04072104 -0.059126455
0.0023867548 -0.035017855 0.045823097 0.042055927 -0.080725014 -0.08811944 -0.0068205823 0.08031457
0.04183002 0.059459288 -0.04908208 -0.04700362 0.07724444 -0.03611265 -0.05406232 -0.054780282
-0.06745127 -0.038932223 -0.029080799 0.0409752 0.05467289 -0.03307908 -0.056181718 -0.01342198
0.026971065 0.06325905 -0.0319428 -0.0029150762 0.022714758 0.042260066 0.02671714 0.039041333
0.037107296 -0.05964425 -0.011424662 0.050187096 0.011006807 -0.010230568 0.065532476 0.02394826
0.07488382 -0.062889695 0.03237882 -0.05408545 -0.056101397 0.0850216 -0.0051266686 0.063832454
-0.060907044 0.0038374073 -0.03260455 -0.0800156 -0.063127875 0.085977115 -0.01454337 0.066908054
0.077458784 -0.059626915 0.044300288 -0.00071446283 -0.07992404 0.006071443 0.08539639 -0.032838643
0.032725047 0.050513312 0.008933435 -0.032845564 -0.06345636 0.04704409 -0.02225519 0.042557232
-0.017096657 -0.071212396 0.06390697 -0.08166089 0.06545908 0.081882715 0.02707544 0.08028214
0.06468056 -0.088173114 0.07672057 -0.01246846 0.03324639 -0.008215527 -0.069871254 0.01637051
-0.04124089 -0.05755012 -0.086061776 -0.04785802 0.0644111 0.07450922 -0.017689042 0.016933834
0.01364148 -0.019626586 0.064973116 -0.011287231 0.027652726 -0.05304364 -0.034681365 0.07487646
-0.02763278 0.031863302 0.032130186 0.057645604 0.03217211 -0.08445565 -0.020233754 -0.020222457
-0.061860204 0.060953964 0.01986088 -0.043927573 0.0077810246 -0.076377064 -0.05549054 -0.032775864
-0.045006175 -0.037227213 -0.029727647 -0.0136110615 -0.022322414 0.023019819 0.025736699 -0.05548093
-0.048576307 0.08782192 0.028682984 0.04651715 0.023838405 -0.0345856 0.058377706 -0.03804831
0.04587456 -0.08452055 -0.07223753 -0.024655178 -3.2979908e-06 0.08422017 -0.087314226 0.05583434

transform_before_conv.0.bias f4 [64]
00000000: c04f 823d 0354 9fbd 0102 23bd c16a 86bd
00000010: 5c9e 61bd f4f4 66bc 4e49 0bbd f60b 273d
00000020: 0521 e2bc 064a 6cbd f500 a3bd 3b97 553d
00000030: 9733 6d3c 4371 8c3d 7bb6 08bd 177a d63c
00000040: 0c00 9fbd 285d aa3d d1d7 943c 5ef7 41bd
00000050: 64f7 7e3d c0cd 8fbd 50b0 8fbb 4eeb b2bc
00000060: 99e0 343d 79bd 283d a373 02bc 67f4 ad3d
00000070: b7c9 d03c 61cf 293c 14d9 993d 997c 893d
00000080: 4245 77bb 3033 9abc cfba ca3a 0345 9d3d
00000090: 7e82 d93c 4aeb df3c 9684 08bd 1dde 0abd
000000a0: e6d8 10bd b442 71bd d668 7fbd 4fca 87bd
000000b0: ac12 8f3c 1a2a a5bd f2bb ddbc 2474 973d
000000c0: 2ecf aa3d 8826 75bd 9714 4d3d 4757 87bd
000000d0: c634 453b f80b 02bd 15a8 8a3d f0b5 b7bc
000000e0: a553 9abc 59e8 953d 51c6 5e3d cd11 bbbc
000000f0: c7e0 343d a128 823d 1c68 eebc a5bf 773d
0.06362867 -0.07779696 -0.039796833 -0.065633304 -0.055082664 -0.014096487 -0.034005456 0.04078289
-0.027603636 -0.05768778 -0.07959167 0.052146178 0.014477632 0.068575405 -0.033377152 0.026181264
-0.07763681 0.083185494 0.018169316 -0.04735505 0.06224765 -0.070216656 -0.0043850318 -0.021840718
0.044159506 0.04119632 -0.00796214 0.08493882 0.02548681 0.010364384 0.075121075 0.06713218
-0.003773049 -0.018823236 0.001546705 0.076791786 0.026551481 0.027333874 -0.03332957 -0.03390323
-0.0353631 -0.058901504 -0.06235584 -0.06630384 0.017464958 -0.08064671 -0.027067158 0.07395199
0.08340298 -0.0598512 0.050068464 -0.06608444 0.003009127 -0.031749696 0.0677034 -0.022425622
-0.018838713 0.073197074 0.054388348 -0.022835637 0.044159677 0.063554056 -0.029102378 0.0604855

transform_before_conv.1.weight f4 [64, 128]
00000000: d91e dfbb f0c8 59bd 9791 00bd 3393 61bc
00000010: 5913 4ebd 1638 5cbd 99cc 913d 7c8c 99bc
00000020: bef3 223d e261 5c3d 42e8 793d 6590 80bd
00000030: d37c 7d3c c2c9 33bc 82d7 0cbc 560b a43b
00000040: aea2 adbd 5812 21bd 3bac 93bd 0b6f 863d
00000050: 95e0 2b3d 7da7 7abd 76ba 0abd 4ad3 14bd
00000060: 8d38 49bb 2521 6c3d 2bcd 05bd e827 ecbc
00000070: fcd1 033d 2350 a63d e0d3 1e3c 9d18 86bd
00000080: 8e65 92bd db46 243d db56 ae3d 871f 903d
00000090: babf 993c fcbe 5b3c 43f0 a83d 2a9f 98bc
000000a0: 3748 91bd a0ca 5e3d 18d8 1fbc c9d0 a43d
000000b0: 9319 84bd b1e6 723d 18c7 093d 9188 96bd
000000c0: cbf2 ac3d 8467 3f3d 5e77 ca3b 1a83 a2bd
000000d0: 045a febc 6cbd 773c c1b8 48bd c581 6b3d
000000e0: a038 aa3c 7a80 8e3c 5bd3 bebc da1e 453c
000000f0: 84da 53bc 5e91 90bd cb02 883d e0aa 9abd
00000100: 5125 5abd 3446 7c3d 9466 71bd c93b 763c
00000110: 28a0 773d ed44 e23c 71c8 59bd f31b 993d
00000120: 0742 393d 50ce d8bb 993d bf3a 1991 f7bc
00000130: afed 6a3c f027 313d dee5 653d 2da1 093d
00000140: 79ec 353d c422 3ebd 9485 a3bd 5a69 2abd
00000150: f808 d7bc a3e8 ecbc 8eda 043c 0a36 8bbd
00000160: 976c b43c 372d 9ebd b00c ac3d 3e74 95bc
00000170: 09b8 dd3c dbd8 3cbd 1b23 0c3d 8ee3 8d3d
00000180: db5d 8ebd 7d4f 4f3d a179 7b3d b6e6 3ebc
00000190: d8dc 4bbd 2d0d ef3c 5c81 efbc c9b9 2abc
000001a0: 6387 14bc 6056 9b3d 1402 82bd 1f66 723d
000001b0: f046 dabb b7b2 233d 7b4e 5c3c fac4 95bd
000001c0: 2b47 0c3d 94a1 8cbd 04e1 b5bc 9f4c 2f3c
000001d0: 35a9 ee3a df5e 3cbd 10ba 4b3d f965 1d3d
000001e0: c9d8 373d 9ec4 933d 1b67 1ebd a65e 49bc
000001f0: 4ae6 9bbd e4b8 873d c852 6f3d f413 37bd
00000200: 254d 823b 8b6d 033d 77d7 073c 7d32 d73c
00000210: 9268 853d 8a57 523d acd5 213d 754a a83d
00000220: eff8 ae3d 1a78 34bd 78db 89bd a97f b03c
00000230: 43e8 573d a130 8d3d 3268 25bd 445f 9f3d
00000240: 5b31 973d 472a a3bc 705e 1dbd 41e4 9c3d
00000250: 50d9 b3bb 2cb0 dcbc e6b6 b5bc 5cee 833c
00000260: 7a49 8a3c 5a4c 14bd c3b4 793d 75aa cebc
00000270: 8c5c 1b3d 269f f7bb d095 6d3d af85 233d
00000280: 4ad0 453d 07ca ad3d 9de7 92bd f7a4 703d
00000290: b00a 6f3d e8e1 883d cbcc 893d 4668 273d
000002a0: ed3a 0a3d a63a 943d 8817 7d3c 53b8 50bd
000002b0: eb36 debc 07e2 533c f3b5 283d 37d1 a53d
000002c0: 6dbe 6bbd fc7f 46bd 0ac2 a2bd e1a3 1a3d
000002d0: f2e3 d43c 12a5 45bd e9e0 25bd 3504 843d
000002e0: 6b90 69bb 4d89 0d3d 026b 113d 475c b93c
000002f0: 7f40 a5bc fe96 56bd eefb 003d cb61 91bd
00000300: ffa4 7f3d e04e f63c 634f aebd 3849 a6bc
00000310: f9cd 623d b124 8d3c 2444 413d f492 07bd
00000320: a3e0 033b 569f b23c 4a80 2c3d 2832 3a3d
00000330: 186a 713d c19e b03d 1deb 633d 3fd7 7f3d
00000340: e07e 7e3d 11d7 a13c 49c1 023c dea6 b43d
00000350: a429 b43d 80e9 8cbd 11fd 933d e19e dfbc
00000360: dfe6 b5bc c4fa 853d 44d0 54bd cf34 823d
00000370: a786 083d b01c 3cbd d244 7f3c e73e 43bc
00000380: 3c12 083d 57ac 0abd 07a1 a1bd 4608 8cbd
00000390: d8d8 2ebd 1ef6 b13d a539 b6bc db18 643d
000003a0: b1f1 883d bd05 d83c 8bb2 db3c 259d f6bc
000003b0: 1571 fa3c 79e6 a5bd fce6 e73c e464 f53c
000003c0: 3a1b dabc 3440 5f3d 2db0 6abd fa59 923d
000003d0: fdca 863c a76b 823d 8458 953d b573 96bc
000003e0: c9fc dc3b b717 3abd 0cc1 abbd d472 93bd
000003f0: 26c8 8a3d 7246 5fbd 110c f4bb 28ef d73c
-0.0068090972 -0.053170145 -0.031388845 -0.013768005 -0.05031142 -0.053764425 0.07119102 -0.018743746
0.039783232 0.053804286 0.061012514 -0.06277541 0.015471655 -0.010973396 -0.008596303 0.005006234
-0.08478294 -0.039324135 -0.07210585 0.065641485 0.041962225 -0.061194886 -0.03386923 -0.036334313
-0.0030703873 0.057648797 -0.032666367 -0.028827623 0.03218268 0.081207536 0.00969407 -0.06547663
-0.07148276 0.040106636 0.0851266 0.07037263 0.01876818 0.013412233 0.08248951 -0.018630583
-0.07093852 0.054392457 -0.009756111 0.08047635 -0.064501904 0.059302036 0.033637136 -0.07350267
0.084447466 0.04672958 0.0061787805 -0.07935162 -0.031048782 0.015120845 -0.04900432 0.057496805
0.020778954 0.017395247 -0.023294142 0.012031281 -0.012930516 -0.070589766 0.06641158 -0.07552123
-0.053258244 0.06159039 -0.058935717 0.015028902 0.06045547 0.027620757 -0.05316967 0.07476034
0.045228984 -0.0066163912 0.0014590501 -0.030220555 0.014338895 0.043250978 0.05612742 0.033600975
0.04441497 -0.046419874 -0.079844624 -0.041604377 -0.026249394 -0.028919524 0.008108748 -0.067974165
0.022024436 -0.07723468 0.084008574 -0.018243905 0.027065294 -0.046105247 0.034213167 0.06928168
-0.06951495 0.050612915 0.06139529 -0.011651685 -0.04977116 0.029181087 -0.029236488 -0.010420271
-0.009065482 0.07584834 -0.063480526 0.05917942 -0.0066612884 0.039965358 0.013446446 -0.07312961
0.03424756 -0.06866756 -0.022202022 0.01069942 0.0018208387 -0.045988914 0.04973799 0.038427327
0.044884477 0.07215236 -0.038672548 -0.012290632 -0.076122835 0.06627062 0.058428556 -0.044696763
0.0039764815 0.03208689 0.008291117 0.026269192 0.06514086 0.051353015 0.039510414 0.082173266
0.08543574 -0.04405985 -0.067313135 0.021545248 0.052711736 0.06894041 -0.04038257 0.07781842
0.07382461 -0.01991762 -0.03842014 0.076607235 -0.005488552 -0.026939474 -0.02218194 0.01610487
0.01688074 -0.036205627 0.060963403 -0.025227765 0.037930056 -0.007556814 0.0580042 0.039922412
0.048294343 0.08485799 -0.07173083 0.058751073 0.0583598 0.06683713 0.06728514 0.040870927
0.033747602 0.07237749 0.015447505 -0.050957035 -0.027125796 0.012932307 0.041189145 0.08096545
-0.05755465 -0.0484619 -0.07947166 0.037753943 0.025987599 -0.048253126 -0.040497694 0.06446115
-0.0035639058 0.03455477 0.03550244 0.02262701 -0.020172356 -0.05239009 0.03149026 -0.07098731
0.062413212 0.030066907 -0.085112356 -0.020298585 0.055372212 0.01722941 0.047184125 -0.03309913
0.0020122908 0.021804493 0.042114533 0.04545799 0.05893907 0.0862403 0.055644143 0.062461134
0.062132716 0.019755872 0.007980653 0.0882089 0.08797005 -0.06880474 0.07226003 -0.027297439
-0.022204814 0.0654197 -0.05195643 0.06357729 0.03333154 -0.045925796 0.015580373 -0.011916853
0.033220515 -0.033855762 -0.07892042 -0.068375155 -0.042687267 0.08689521 -0.022244284 0.055687767
0.06686724 0.026369924 0.026818534 -0.03010423 0.0305715 -0.081006 0.028308384 0.029955335
-0.02662431 0.05450459 -0.05729692 0.07146068 0.016454214 0.06368189 0.07292274 -0.01836572
0.0067440015 -0.045432772 -0.0838643 -0.07199636 0.067764565 -0.05451054 -0.0074477275 0.026359156

transform_before_conv.1.bias f4 [64]
00000000: 3efa b63c 08bf e33c 1de3 593d ae64 233c
00000010: df08 c43b ab2f 8c3d 8b75 1abc 4532 f03b
00000020: 6343 833d cd11 ae3d 6593 6a3c a410 3f3d
00000030: b886 ae3d e30e a53d 9289 0cbd abf7 9f3c
00000040: cf91 8cbd da6f 773d 522b 11bd 2071 8f3d
00000050: b669 033d 08f0 11bd c9b0 7fbd b66b 1abd
00000060: 0033 4abc 326e 89bd f323 9d3d 6cf2 c73c
00000070: c73f b2bd 87f4 a0b8 5769 1d3d 2cb0 04bc
00000080: 11a3 b4bd 58cd 293c 3b7d 8e3c 43bb 31bd
00000090: 2c41 4d3d d280 4dbd dd59 a93b 6338 92bd
000000a0: e3bf a13c 022a 743d 238a 943d 9b70 ae3d
000000b0: c32c 6fbd f54e a3bd 17f0 b4bd c716 21bd
000000c0: 3565 ef3c 4b21 603c 66df ec3c f897 bcbc
000000d0: bb32 963d 898f 87bd 8c9d c73c 9f24 a3bd
000000e0: 6791 2abd 2671 48bc d47b a43d 248d 803d
000000f0: 51ca 6a3d bc0d a0bd a5cb c2bc bf9d a73d
0.022336122 0.027801052 0.053195108 0.009972734 0.005982503 0.068450294 -0.0094274385 0.0073302113
0.06409337 0.08499489 0.014317368 0.04664673 0.08521789 0.0805948 -0.034310885 0.019527277
-0.06863748 0.060409404 -0.035441704 0.07003999 0.032083236 -0.035629302 -0.062424455 -0.037700377
-0.012341261 -0.06710471 0.076728724 0.024407588 -0.08703571 -7.674941e-05 0.038430538 -0.008098643
-0.08820165 0.010363899 0.017393699 -0.043391477 0.05011098 -0.05017168 0.0051681832 -0.07139661
0.019744819 0.059610374 0.0725291 0.085175715 -0.058392297 -0.07974044 -0.08834856 -0.039328363
0.029223064 0.013679813 0.028915118 -0.023021683 0.07333895 -0.06619174 0.024367116 -0.07965969
-0.041642573 -0.012234008 0.08031431 0.062769204 0.05732185 -0.078151196 -0.023778746 0.081843846
